…
This method allows the user to access the overall architecture of the model in dictionnary format.


3. **Get Layer by Index**
```python
layer_index = ['classifier', 6]
layer = model_manager.get_layer_by_index(layer_index)

>>> Linear(in_features=4096, out_features=1000, bias=True)
```

The index is represented by a list, where each position represents a level. For instance, in the previous example, 'classifier' is the index to access the first level of the model architecture, and 6 is the index of the layer at the second level.

4. **Get Layer by Attribute**
```python
layers = model_manager.get_layer_by_attribute('out_features', 1000, '==')
>>> {('classifier', 6): Linear(in_features=4096, out_features=1000, bias=True)}
```
Retrieves all the layers satifying the given condition `out_features = 1000`.

5. **Get Layers by Conditions**
```python
# Retrieve layers that satisfy the given conditions
conditions = {
            'and': [{'==': ('kernel_size', (1, 1))}, {'==': ('stride', (1, 1))}],
            'or': [{'==': ('kernel_size', (3, 3))}]
            }
layers = model_manager.get_layer_by_attributes(conditions)
>>> {('features', 0): Conv2d(3, 64, kernel_size=(3, 3), stride=(1, 1), padding=(1, 1)), ('features', 2): Conv2d(64, 64, kernel_size=(3, 3), stride=(1, 1), padding=(1, 1)), ('features', 5): Conv2d(64, 128, kernel_size=(3, 3), stride=(1, 1), padding=(1, 1)), ('features', 7): Conv2d(128, 128, kernel_size=(3, 3), stride=(1, 1), padding=(1, 1)), ('features', 10): Conv2d(128, 256, kernel_size=(3, 3), stride=(1, 1), padding=(1, 1)), ('features', 12): Conv2d(256, 256, kernel_size=(3, 3), stride=(1, 1), padding=(1, 1)), ('features', 14): Conv2d(256, 256, kernel_size=(3, 3), stride=(1, 1), padding=(1, 1)), ('features', 17): Conv2d(256, 512, kernel_size=(3, 3), stride=(1, 1), padding=(1, 1)), ('features', 19): Conv2d(512, 512, kernel_size=(3, 3), stride=(1, 1), padding=(1, 1)), ('features', 21): Conv2d(512, 512, kernel_size=(3, 3), stride=(1, 1), padding=(1, 1)), ('features', 24): Conv2d(512, 512, kernel_size=(3, 3), stride=(1, 1), padding=(1, 1)), ('features', 26): Conv2d(512, 512, kernel_size=(3, 3), stride=(1, 1), padding=(1, 1)), ('features', 28): Conv2d(512, 512, kernel_size=(3, 3), stride=(1, 1), padding=(1, 1))}
```

It is almost the same as the previous one, but this time it extracts the layers that satisfy a set of conditions.

6. **Get Layer by Instance**
```python
# Search for layers in the model by their instance type
layers = model_manager.get_layer_by_instance(nn.Conv2d)
>>> {('features', 0): Conv2d(3, 64, kernel_size=(3, 3), stride=(1, 1), padding=(1, 1)), ('features', 2): Conv2d(64, 64, kernel_size=(3, 3), stride=(1, 1), padding=(1, 1)), ('features', 5): Conv2d(64, 128, kernel_size=(3, 3), stride=(1, 1), padding=(1, 1)), ('features', 7): Conv2d(128, 128, kernel_size=(3, 3), stride=(1, 1), padding=(1, 1)), ('features', 10): Conv2d(128, 256, kernel_size=(3, 3), stride=(1, 1), padding=(1, 1)), ('features', 12): Conv2d(256, 256, kernel_size=(3, 3), stride=(1, 1), padding=(1, 1)), ('features', 14): Conv2d(256, 256, kernel_size=(3, 3), stride=(1, 1), padding=(1, 1)), ('features', 17): Conv2d(256, 512, kernel_size=(3, 3), stride=(1, 1), padding=(1, 1)), ('features', 19): Conv2d(512, 512, kernel_size=(3, 3), stride=(1, 1), padding=(1, 1)), ('features', 21): Conv2d(512, 512, kernel_size=(3, 3), stride=(1, 1), padding=(1, 1)), ('features', 24): Conv2d(512, 512, kernel_size=(3, 3), stride=(1, 1), padding=(1, 1)), ('features', 26): Conv2d(512, 512, kernel_size=(3, 3), stride=(1, 1), padding=(1, 1)), ('features', 28): Conv2d(512, 512, kernel_size=(3, 3), stride=(1, 1), padding=(1, 1))}
```

The `get_layer_by_instance` method allows you to extract layers of a specific type from the model. In the previous example, the extracted layers are convolutional layers.

7. **Delete Layer by Index**
The deletion process involves the following steps:

1. Search for the layers and retrieve their indexes.
2. Delete the layers at the corresponding indexes.
…
